ddqn_checkpoint.pth (torch_old, 28391 bytes, 6 tensors)

fc1.weight f4 [64, 37]
-0.1582983 0.14840382 -0.11109161 0.010476337 0.09237966 -0.039167218 0.07257371 0.18433276
0.010129374 -0.091169015 0.13174343 -0.28993103 -0.08521387 -0.18000716 -0.5317367 -0.28115365
0.027945137 0.2753562 0.16799355 -0.0008476883 0.03166446 -0.17219158 0.1096218 0.21330665
0.034307923 -0.13381748 0.20668708 -0.1373267 0.08540711 0.18374863 -0.224206 0.043048974
-0.0038877926 0.1091547 0.036797702 -0.06302973 -0.020059556 0.5108617 -0.42442387 -0.11003879
-0.31319153 -2.026345 -0.1145523 -0.038942687 -0.058878075 -0.039677657 -0.0144176 -0.03939531
-0.050662234 0.021677317 0.04882725 0.123036884 0.03613748 0.01442036 0.04743593 0.114379615
0.08925172 -0.18231629 -0.05573409 -0.104167804 0.02878395 0.04041295 -0.06894247 0.0067415833
0.026617253 0.10390023 0.11285003 -0.010774799 0.16569039 0.09340858 0.053682122 0.025438346
0.04462743 -0.008675968 0.08331494 0.14834219 0.152122 -0.13984805 -0.26144254 -0.5873289
0.20192023 0.306769 0.16552877 -0.3514164 -0.06750781 0.10881833 -0.02461226 -0.056679536
-0.021588627 -0.10016895 0.1998164 0.13056988 0.20189953 0.022866048 0.0590043 -0.016883954
-0.070194855 0.010052636 0.08400605 -0.18196835 0.2050072 0.17622131 0.0492739 -0.12784196
-0.065203436 0.037422553 -0.17197706 0.05179119 -0.13784648 -0.015610416 0.03996413 0.05519056
0.08375376 0.10755632 0.05310067 -0.020895045 0.07980159 -0.3985589 0.042553812 0.08552952
-0.1884781 -0.061857678 0.055666454 0.019757764 -0.16494898 -0.20122947 -0.10832679 -0.050023135
-0.027647257 0.0015820258 -0.0143686 -0.12639894 0.099258214 0.070181 0.20138828 0.13588983
-0.045458443 -0.13045098 0.08355779 0.23114596 0.33387566 0.1942999 0.411899 -0.35493052
-0.40258414 -1.6370697 0.08498701 0.0049349335 -0.10372732 -0.048798155 -0.0895445 -0.13600913
-0.13964143 0.40092665 -0.86327803 -0.446224 -0.6175697 -2.3408878 0.020428345 -0.047556955
0.0364344 -0.019256676 0.004282589 -0.061430573 -0.022006549 0.06328149 0.07629178 0.070211776
0.0035124682 0.06774152 0.018732395 0.04016526 0.16906124 0.115273334 0.106139846 0.08230643
0.16337119 -0.07554329 0.047841065 0.04648556 0.17230728 0.24271834 0.30814356 0.029288232
0.0029578197 0.06892081 -0.02787351 -0.009314386 -0.009823246 0.113479055 0.35992393 0.15674181
-0.12195227 -0.35841793 -1.8662266 -0.02044356 -0.0847832 -0.03947151 0.015683375 0.10405505
0.02392125 0.0026302233 0.012693111 -0.0405288 0.03095063 0.06519698 0.054077294 0.09634849
0.20787096 0.07462542 -0.06301939 0.034623392 0.025650272 0.060406424 0.12990668 0.08287042
-0.06994703 -0.0760724 0.05134877 0.07080239 0.020272389 0.014016686 0.115162425 -0.7083179
-0.10093024 0.14473659 0.6652874 -0.40469748 0.01791576 -0.029676927 0.016868673 0.14155385
0.15094616 -0.0554602 -0.0111846905 0.07820446 -0.032058347 -0.28157654 0.06801022 -0.017252702
0.01954729 0.12080087 -0.15475039 0.044744305 0.037971027 -0.12150239 0.16532502 -0.12260988
-0.20905554 0.011970367 -0.05105297 0.04047571 -0.1904389 -0.02090869 0.06609546 0.086848706
00000000: f318 22be 2cf7 173e ff83 e3bd f1a4 2b3c
00000010: 8c31 bd3d ce6d 20bd 86a1 943d bac1 3c3e
00000020: adf5 253c d2b6 babd c0e7 063e d771 94be
00000030: 9c84 aebd cc53 38be e51f 08bf 5ff3 8fbe
00000040: 33ed e43c 7dfb 8c3e 8006 2c3e 6637 5eba
00000050: 98b2 013d fd52 30be 6581 e03d 0f6d 5a3e
00000060: 7786 0c3d 7307 09be c7a5 533e 5f9f 0cbe
00000070: ece9 ae3d 9a28 3c3e 4296 65be 1f54 303d
00000080: 56ca 7ebb 808c df3d 30b9 163d bb15 81bd
00000090: f053 a4bc d5c7 023f 164e d9be 045c e1bd
000000a0: a45a a0be a3af 01c0 659a eabd 5e82 1fbd
000000b0: 232a 71bd 0a85 22bd cc37 6cbc fa5c 21bd
000000c0: 3483 4fbd a194 b13c 15ff 473d c3fa fb3d
000000d0: e504 143d 6043 6c3c 2e4c 423d dc3f ea3d
000000e0: 9bc9 b63d 1fb1 3abe 6e49 64bd ee55 d5bd
000000f0: 51cc eb3c 0d88 253d b631 8dbd 80e8 dc3b
00000100: 6d0c da3c a5c9 d43d eb1d e73d c888 30bc
00000110: beaa 293e ff4c bf3d c9e1 5b3d 1464 d03c
00000120: 41cb 363d a625 0ebc 06a1 aa3d 04e7 173e
00000130: dfc5 1b3e 5434 0fbe ccdb 85be 305b 16bf
00000140: 2dc4 4e3e d410 9d3e 6080 293e daec b3be
00000150: 8941 8abd 25dc de3d a69f c9bc cd28 68bd
00000160: a2da b0bc 6125 cdbd ac9c 4c3e 1cb4 053e
00000170: c0be 4e3e 9451 bb3c 7eae 713d 3850 8abc
00000180: 52c2 8fbd d0b3 243c 5d0b ac3d e955 3abe
00000190: 68ed 513e 5c73 343e 6ed3 493d 01e9 02be
000001a0: 6189 85bd 6448 193d c11a 30be 0023 543d
000001b0: a127 0dbe d5c2 7fbc 6db1 233d 7f0f 623d
000001c0: 1787 ab3d 7d46 dc3d 1780 593d 162c abbc
000001d0: 046f a33d ea0f ccbe e84c 2e3d 1a2a af3d
000001e0: 6700 41be 7a5e 7dbd 8202 643d 09db a13c
000001f0: 63e8 28be 190f 4ebe 70da ddbd 0fe5 4cbd
00000200: 807c e2bc fa5b cf3a 476a 6bbc b96e 01be
00000210: e447 cb3d 0ebb 8f3d bb38 4e3e b426 0b3e
00000220: a232 3abd f194 05be 5920 ab3d 87b1 6c3e
00000230: c0f1 aa3e 8ef6 463e 6de4 d23e 74b9 b5be
00000240: 821f cebe 808b d1bf ab0d ae3d 39b5 a13b
00000250: fd6e d4bd 93e0 47bd 1b63 b7bd fa45 0bbe
00000260: 2afe 0ebe 4246 cd3e caff 5cbf 7977 e4be
00000270: 0c19 1ebf 1bd1 15c0 5859 a73c 15cb 42bd
00000280: 3d3c 153d 2dc0 9dbc f654 8c3b a09e 7bbd
00000290: 1447 b4bc ba99 813d dd3e 9c3d 31cb 8f3d
000002a0: 7031 663b 11bc 8a3d ae74 993c 5484 243d
000002b0: 641e 2d3e 6d14 ec3d d95f d93d 4690 a83d
000002c0: c74a 273e 71b6 9abd fef4 433d a467 3e3d
000002d0: 5271 303e 288b 783e fec4 9d3e e0ed ef3c
000002e0: fbd7 413b 5b26 8d3d fd56 e4bc 5e9b 18bc
000002f0: aef1 20bc b567 e83d f347 b83e ed80 203e
00000300: 1dc2 f9bd 8e82 b7be 83e0 eebf 4179 a7bc
00000310: d0a2 adbd e1ac 21bd 6c7a 803c d01a d53d
00000320: 7ff6 c33c d35f 2c3b c4f6 4f3c 8701 26bd
00000330: 2d8c fd3c ff85 853d 2780 5d3d 5b52 c53d
00000340: 20dc 543e 36d5 983d 4f10 81bd 42d1 0d3d
00000350: 8520 d23c ba6c 773d 4206 053e f7b7 a93d
00000360: 6340 8fbd d9cb 9bbd 1653 523d d800 913d
00000370: 4812 a63c 3ea6 653c 47da eb3d 5254 35bf
00000380: 83b4 cebd d435 143e 4650 2a3f 8234 cfbe
00000390: 12c4 923c 071d f3bc 2c30 8a3c 7ef3 103e
000003a0: a191 1a3e 3c2a 63bd fe3f 37bc a929 a03d
000003b0: 9d4f 03bd cd2a 90be f148 8b3d 8a55 8dbc
000003c0: a321 a03c 7266 f73d e376 1ebe ce45 373d
000003d0: 8287 1b3d 3fd6 f8bd f64a 293e e41a fbbd
000003e0: a812 56be 5c1f 443c eb1c 51bd dcc9 253d
000003f0: 6a02 43be b348 abbc 0e5d 873d bcdd b13d

fc1.bias f4 [64]
0.09698419 -0.02287507 -0.06496792 -0.0052361484 0.26640442 -0.025265913 -0.12901306 0.12617052
0.10046318 -0.20637017 0.30629998 0.2691248 0.13204578 0.09035179 -0.11599608 -0.04922524
0.19035196 -0.046748906 0.025470482 -0.24643573 -0.1156566 0.06087083 0.0016912475 -0.15289052
-0.117924705 0.17664202 0.018549452 -0.22886181 0.19389054 0.13273585 0.04250067 -0.14350238
0.21471559 0.0026658177 -0.15609904 0.10735429 -0.044299513 -0.046166133 -0.090951756 -0.16769758
-0.091042675 -0.027118774 -0.104463995 0.28363016 -0.04237881 -0.036469143 -0.041905526 -0.19567965
-0.0427907 0.083815955 -0.14337902 0.08882339 0.02169416 -0.15118805 -0.20245872 0.011202907
0.10247823 0.005686996 -0.11885273 -0.12261835 0.03275435 0.028420385 0.10391664 -0.018541494
00000000: a69f c63d 8064 bbbc e70d 85bd ff93 abbb
00000010: 2966 883e 76fa cebc 001c 04be d832 013e
00000020: a4bf cd3d b452 53be 5ad3 9c3e baca 893e
00000030: 0237 073e 5c0a b93d 5a8f edbd 68a0 49bd
00000040: a0eb 423e c87b 3fbd 79a7 d03c a659 7cbe
00000050: 5edd ecbd b153 793d d9ac dd3a 558f 1cbe
00000060: 8282 f1bd a5e1 343e 05f5 973c c05a 6abe
00000070: 3e8b 463e e8eb 073e 2f15 2e3d 4af2 12be
00000080: 67de 5b3e 00b5 2e3b 6dd8 1fbe 91dc db3d
00000090: 6873 35bd b318 3dbd ea44 babd eab8 2bbe
000000a0: 9574 babd 3128 debc 38f1 d5bd f937 913e
000000b0: 6795 2dbd ab60 15bd 21a5 2bbd 3f60 48be
000000c0: 4d45 2fbd b3a7 ab3d f3d1 12be 0ae9 b53d
000000d0: f3b7 b13c 0ad1 1abe 5751 4fbe 668c 373c
000000e0: 1be0 d13d fb59 ba3b 0f69 f3bd 541f fbbd
000000f0: 6d29 063d ded1 e83c 3fd2 d43d 55e4 97bc

fc2.weight f4 [64, 64]
0.24239132 -0.16100259 0.2670043 -0.08787389 0.23880334 -0.63885766 0.024288122 -0.019175254
0.027869135 0.032663066 0.047559377 0.058358595 -0.31522733 0.18484613 -0.06355841 -0.3888884
-0.0049044136 -0.048384074 -0.17832911 0.13854146 -0.26649347 0.0041209348 0.06603056 -0.26167122
-0.34847116 -0.11468993 -0.21096632 -0.075340346 0.112881474 -0.1143674 0.37379497 -0.16579762
0.10647126 -0.02007259 -0.5131195 -0.30825347 -0.12946598 -0.07023872 -0.19595455 -0.071741395
-0.4005862 -0.081608675 0.30833766 -0.23359053 -0.3323713 0.00020026678 -0.37145516 -0.013283001
-0.11247308 0.27456877 -0.18487667 -0.24385023 -0.27177227 0.14051948 -0.025633333 -0.22741775
-0.040102027 -0.20876841 -0.14816323 -0.27453157 -0.015958404 0.12927432 -0.42899963 -0.023669466
-0.08166336 -0.17739834 0.03369205 0.18647164 0.5116996 0.22902921 -0.17985979 0.14202593
0.05181901 -0.120500356 0.0396961 0.22592315 0.02932267 -0.00084030133 -0.11947542 0.049460605
0.07628205 -0.005363183 0.21986474 -0.013586752 0.040536005 -0.11976972 0.08700946 0.030695014
0.029354673 0.048220266 -0.27644077 -0.043892927 -0.17149428 -0.03959712 0.22278826 -0.12153663
-0.4485215 -0.08767536 -0.09644398 -0.021466238 -0.0977003 0.036012318 0.11591481 -0.014382503
0.009545254 -0.14288755 -0.031296436 -0.11967707 0.12585612 -0.11296639 -0.11642169 0.0152535755
-0.5163663 -0.11362659 0.28811148 0.17839679 -0.014863528 -0.04776492 -0.10798227 0.1345216
0.053117897 0.034755535 0.091855265 0.13534208 -0.28357 -0.16824335 0.0857774 -0.035077594
0.03060943 -0.22510329 0.062334046 -0.2014573 -0.33015692 -0.22062056 0.0059154723 -0.33251438
-0.011295341 -0.07883732 0.31164515 -0.10801354 0.026685366 0.03022229 -0.08634104 0.1408775
-0.094811775 0.011331908 -0.23675792 0.06633355 -0.12957023 -0.16897327 -0.18753256 -0.046448242
-0.2666499 -0.042856976 -0.2957826 -0.075125016 -0.14897026 0.017038263 -0.34487212 -0.07398367
-0.14690225 -0.15653248 -0.4073144 0.08201035 0.22450192 -0.036193144 0.11347533 -0.05108117
0.13295114 -0.3475015 0.11846361 -0.16478515 -0.15647087 -0.056352098 -0.07410928 0.092191465
0.1486123 -0.17195886 -0.2634742 0.09220835 -0.08200312 0.12487621 -0.016217742 0.02242972
0.079098746 -0.2024511 -0.0032539503 0.13729899 -0.30390742 -0.21982528 0.8673781 -0.08855208
0.00190495 -0.23663592 0.029122734 -0.094938345 -0.046461746 0.059824884 -0.060297273 0.009751855
-0.34573552 0.060224574 -0.26035073 0.11033805 0.070401385 0.10068319 -0.3915295 0.11651641
-0.0006168691 -0.1272581 -0.1894967 -0.083885156 0.19588004 0.025948476 0.12499682 0.19931443
0.14858314 -0.09825331 -0.021869272 -0.2883115 0.09866323 -0.2468028 0.33071437 0.1352247
-0.20578605 -0.3121654 0.08996815 0.16654894 0.055658918 0.03326656 0.0021184362 0.045334775
0.16065495 -0.024586942 0.39429778 -0.08727363 -0.023762427 0.025937967 0.21281345 0.012553101
0.055158567 0.053632043 0.007778972 0.020552712 0.11611662 -0.052560125 -0.021364516 0.04588288
-0.46694756 -0.036352903 -0.40456876 0.118865564 0.029779281 -0.14744325 -0.23752262 0.040848207
00000000: 6e35 783e dddd 24be cab4 883e 3af7 b3bd
00000010: dd88 743e 2d8c 23bf e2f7 c63c 6c15 9dbc
00000020: d04d e43c b5c9 053d 9fcd 423d 6c09 6f3d
00000030: 7a65 a1be 4e48 3d3e e92a 82bd 611c c7be
00000040: 34b5 a0bb 612e 46bd e89b 36be d0dd 0d3e
00000050: d571 88be e808 873b 083b 873d c5f9 85be
00000060: d06a b2be 8ee2 eabd 8e07 58be 0a4c 9abd
00000070: 672e e73d 7539 eabd 0e62 bf3e dac6 29be
00000080: 9b0d da3d 466f a4bc cd5b 03bf 66d3 9dbe
00000090: bb92 04be 51d9 8fbd 4fa8 48be 27ed 92bd
000000a0: a219 cdbe 7322 a7bd 6fde 9d3e 5b32 6fbe
000000b0: 922c aabe b4fe 5139 5f2f bebe f2a0 59bc
000000c0: 4958 e6bd 4794 8c3e 4f50 3dbe e0b3 79be
000000d0: bc25 8bbe 57e4 0f3e fffc d1bc 33e0 68be
000000e0: 0642 24bd 63c7 55be 1ab8 17be 678f 8cbe
000000f0: 33bb 82bc 7d60 043e d7a5 dbbe 78e6 c1bc
00000100: 1f3f a7bd e9a7 35be ad00 0a3d 6cf2 3e3e
00000110: bffe 023f a286 6a3e 2a2d 38be 3f6f 113e
00000120: 2c40 543d e4c8 f6bd 6198 223d 6658 673e
00000130: 1936 f03c ab47 5cba 87af f4bd 3497 4a3d
00000140: c339 9c3d a4bd afbb 3924 613e f89a 5ebc
00000150: 1509 263d d449 f5bd 0432 b23d 1c74 fb3c
00000160: 3679 f03c 9d82 453d a589 8dbe 12c9 33bd
00000170: 329c 2fbe 9730 22bd 9b22 643e 32e8 f8bd
00000180: 9ca4 e5be 248f b3bd 6c84 c5bd f7d9 afbc
00000190: 1817 c8bd a781 133d be64 ed3d 97a4 6bbc
000001a0: b263 1c3c 1d51 12be b130 00bd 4019 f5bd
000001b0: 6de0 003e ec5a e7bd 7f6e eebd 22ea 793c
000001c0: 9530 04bf 0fb5 e8bd 5983 933e a6ad 363e
000001d0: 2886 73bc 26a5 43bd cf25 ddbd 08c0 093e
000001e0: 2792 593d d25b 0e3d 9d1e bc3d 1d97 0a3e
000001f0: 1630 91be fc47 2cbe 10ac af3d 86ad 0fbd
00000200: a1c0 fa3c 7a81 66be fc51 7f3d d34a 4ebe
00000210: 540a a9be 5bea 61be 94d6 c13b 533f aabe
00000220: 1810 39bc 7675 a1bd f48f 9f3e 3436 ddbd
00000230: 459b da3c bc94 f73c 92d3 b0bd 3142 103e
00000240: ad2c c2bd 78a9 393c ab70 72be e2d9 873d
00000250: 0fae 04be 5407 2dbe 8908 40be 8340 3ebd
00000260: 5686 88be cc8a 2fbd d170 97be 25db 99bd
00000270: a98b 18be d493 8b3c 1493 b0be c084 97bd
00000280: 8b6d 16be 0d4a 20be 838b d0be 0bf5 a73d
00000290: d5e3 653e 433f 14bd c165 e83d 7d3a 51bd
000002a0: 5824 083e b7eb b1be 0d9d f23d 70bd 28be
000002b0: e639 20be 75d1 66bd 9bc6 97bd e1ce bc3d
000002c0: d32d 183e fc15 30be 17e6 86be bbd7 bc3d
000002d0: 40f1 a7bd 19bf ff3d 12db 84bc 88be b73c
000002e0: 86fe a13d 574f 4fbe 3a40 55bb 1b98 0c3e
000002f0: c199 9bbe e119 61be 7e0c 5e3f cb5a b5bd
00000300: 84af f93a b050 72be cd92 ee3c 096f c2bd
00000310: ac4e 3ebd f00a 753d 46fa 76bd 3fc6 1f3c
00000320: 3f04 b1be 0bae 763d b14c 85be eaf8 e13d
00000330: 9a2e 903d fd32 ce3d 8e76 c8be 28a0 ee3d
00000340: 62b5 21ba f34f 02be 6c0b 42be fbcb abbd
00000350: c794 483e e691 d43c 55fe ff3d 1519 4c3e
00000360: 2e26 183e 0839 c9bd 3027 b3bc 919d 93be
00000370: f30f ca3d e0b9 7cbe 6553 a93e 5878 0a3e
00000380: 94b9 52be 25d4 9fbe 3941 b83d ce8b 2a3e
00000390: 9bfa 633d 8442 083d 76d5 0a3b f5b0 393d
000003a0: bb82 243e 8e6a c9bc 66e1 c93e 84bc b2bd
000003b0: 6ca9 c2bc dc7b d43c c5eb 593e 86ab 4d3c
000003c0: f3ed 613d 46ad 5b3d bfe6 fe3b 295e a83c
000003d0: 8dce ed3d 4949 57bd a304 afbc b0ef 3b3d
000003e0: c013 efbe c8e6 14bd a323 cfbe ca6f f33d
000003f0: aef3 f33c 5dfb 16be 2139 73be 7350 273d

fc2.bias f4 [64]
-0.024161963 0.07148299 0.06535151 0.08862261 0.09596194 -0.06836669 -0.081765115 -0.032039877
0.24993211 0.53222644 -0.105513655 0.26256493 0.0640267 -0.041834693 -0.02569791 -0.047779243
-0.06408109 0.07713251 -0.12566005 0.07564269 0.25484365 0.46488443 -0.1357489 -0.005304332
-0.06354631 -0.020940222 0.06772492 0.021434667 0.06548929 0.09846761 0.053765148 0.060252067
-0.09551874 0.12703522 0.22666802 0.013965689 -0.11810628 -0.06829687 0.17661986 -0.09072955
-0.14215255 0.59849244 0.29821885 -0.07002661 0.0111361025 -0.19108462 0.4057926 -0.02595955
-0.05076772 -0.039236322 -0.12906983 0.16783272 -0.052170496 -0.17375483 0.03275603 -0.1503643
-0.20730639 -0.12967704 0.026554128 -0.13089624 0.017598387 0.40330094 0.15111938 -0.15850195
00000000: 4fef c5bc ad65 923d 03d7 853d c57f b53d
00000010: b287 c43d d603 8cbd 7874 a7bd 3f3c 03bd
00000020: 34ee 7f3e fe3f 083f 8b17 d8bd e96e 863e
00000030: 6e20 833d db5a 2bbd 6c84 d2bc 2bb4 43bd
00000040: f23c 83bd a6f7 9d3d 07ad 00be 8eea 9a3d
00000050: de7a 823e 5505 ee3e c201 0bbe f6cf adbb
00000060: 9124 82bd d48a abbc 5db3 8a3d c197 af3c
00000070: 401f 863d 63a9 c93d d838 5c3d dfca 763d
00000080: 549f c3bd 8515 023e a91b 683e 58d0 643c
00000090: b5e1 f1bd 3bdf 8bbd d6db 343e 6ad0 b9bd
000000a0: 7090 11be cd36 193f 24b0 983e 1c6a 8fbd
000000b0: 3374 363c b0ab 43be 0cc4 cf3e 1fa9 d4bc
000000c0: d0f1 4fbd 44b6 20bd e22a 04be 57dc 2b3e
000000d0: bbb0 55bd c9ec 31be 302b 063d 19f9 19be
000000e0: 2048 54be 0fca 04be 0b88 d93c aa09 06be
000000f0: 7e2a 903c 767d ce3e 0abf 1a3e 564e 22be

fc3.weight f4 [4, 64]
0.109266095 0.19043438 0.43520778 0.025712328 0.4735428 -0.04196334 0.27413484 -0.20992324
0.16879608 0.13693348 -0.33799386 0.28860748 0.22889128 -0.1352027 0.038805407 -0.31620362
-0.21608767 0.2443829 -0.123504765 0.28954378 0.12511146 0.22687206 0.07762299 0.038131688
-0.34913316 0.07367784 0.0107179005 0.086304516 0.35287812 0.039873015 -0.37619686 0.06799012
0.028189303 0.40160787 0.12675622 0.029918103 0.047090057 0.08704874 0.16847664 0.1550189
0.08018765 0.17798196 0.14124729 -0.07689838 0.7433196 -0.036975194 0.19227591 0.50537354
-0.16129138 0.2486102 -0.1749769 0.34222552 0.014297366 -0.27860394 0.039984163 -0.83844787
-0.15917236 -0.026210373 0.11324201 -0.063984446 -0.22461228 0.20513348 0.17457452 0.10322456
0.3977621 0.19971317 0.38106126 0.039540555 0.6614958 -0.56914115 0.1827274 -0.12504111
0.1501796 0.16938879 0.1404558 0.17540683 0.2072859 0.14034826 0.028685812 -0.26878664
-0.17976107 0.19224893 -0.14165474 0.31349778 0.10658548 0.26008695 0.066944554 0.057764374
0.2976835 0.03383409 0.096626855 0.1710592 0.32159168 0.18094826 -0.15847091 0.07803078
0.0030169352 0.3803741 0.108905576 0.23944613 -0.19506621 -0.61037916 0.14232177 0.17669566
0.118997455 0.20153151 0.14078291 0.1175781 0.734353 -0.026820188 0.19396782 0.4353847
-0.011567555 0.2940444 0.21779963 0.37966523 0.15177387 -0.26338357 0.096033745 0.020723049
-0.072452925 -0.063920185 0.05510256 -0.2536535 -0.29057986 0.044200096 -0.041845832 -0.0064433026
-0.37968883 0.17519777 0.36932802 0.15247945 0.6805176 0.027986472 -0.018858885 0.002789952
0.187896 0.17032775 -0.18710645 0.23897856 0.17194228 -0.31321257 0.016602037 0.13191488
0.19452097 0.17445503 -0.34388578 0.37204748 0.16496184 0.28994614 -0.25388455 0.20928282
0.17916004 0.20063546 -0.37074205 0.38650084 0.41878873 0.3605104 -0.22178055 -0.02783873
-0.0359125 0.15214172 0.1660638 0.18567546 -0.19635008 -0.13370973 0.08378837 -0.1274593
0.047539037 0.20558234 0.1308257 0.11649058 0.5171319 0.08793993 0.15306173 0.37495962
0.082597815 -0.039745864 0.14309736 0.23483062 -0.49352327 -0.17900407 0.05139969 -0.01037501
-0.18244588 -0.1568831 0.011069446 -0.4748601 -0.28999045 0.12881058 -0.61829066 0.011812159
0.25579968 0.27389377 0.5013597 -0.058621705 -0.08430459 -0.21579702 -0.5356509 -0.119362965
0.17607509 0.21657966 0.022035526 0.10161919 0.3341851 -0.024063768 0.23705596 -0.41822025
-0.08465864 0.17364362 -0.012005628 0.36859056 0.0720582 0.3163634 -0.37237832 0.26017907
-0.07286721 -0.35188287 0.15700738 0.1732165 0.3881188 0.17019151 -0.20150383 0.101267055
-0.19114494 0.31784168 0.028564442 -0.1966766 -0.27239653 0.13964376 0.16001828 0.32801118
-0.098305225 0.2346989 0.22447588 -0.5709917 0.7476493 -0.22806263 0.14646982 0.20178272
0.15977532 0.022310661 0.3561932 0.058008574 -0.14031701 -0.21870819 0.30515057 0.06419278
-0.046377387 -0.022569977 -0.3668414 -0.5578715 -0.40771836 0.07990965 -0.24829596 -0.023165198
00000000: e7c6 df3d 3b01 433e 8ed3 de3e a9a2 d23c
00000010: 3474 f23e c0e1 2bbd 675b 8c3e 1ef6 56be
00000020: e1d8 2c3e 4a38 0c3e 880d adbe 5cc4 933e
00000030: 7a62 6a3e 9472 0abe 6bf2 1e3d 71e5 a1be
00000040: 1646 5dbe 833f 7a3e 11f0 fcbd 153f 943e
00000050: 381d 003e 2651 683e cdf8 9e3d f92f 1c3d
00000060: 95c1 b2be 68e4 963d 229a 2f3c 6cc0 b03d
00000070: 71ac b43e e351 233d e09c c0be 673e 8b3d
00000080: 41ed e63c 8c9f cd3e 62cc 013e cf16 f53c
00000090: 81e1 403d 9c46 b23d 2485 2c3e 46bd 1e3e
000000a0: 6c39 a43d e740 363e 21a3 103e e67c 9dbd
000000b0: 314a 3e3f 4d73 17bd fae3 443e 2960 013f
000000c0: 9129 25be ac93 7e3e 252d 33be 2f38 af3e
000000d0: 803f 6a3c 2da5 8ebe 6fc6 233d 85a4 56bf
000000e0: 14fe 22be 23b7 d6bc 6deb e73d 470a 83bd
000000f0: c300 66be 830e 523e aac3 323e 6667 d33d
00000100: 79a7 cb3e 9c81 4c3e 761a c33e 47f5 213d
00000110: ca57 293f 3cb3 11bf e41c 3b3e c70a 00be
00000120: aec8 193e 4174 2d3e a5d3 0f3e d99d 333e
00000130: c142 543e 74b7 0f3e 82fe ea3c 679e 89be
00000140: 4913 38be e7dc 443e f10d 11be c882 a03e
00000150: 7d49 da3d 1e2a 853e 3a1a 893d 569a 6c3d
00000160: f969 983e 9d95 0a3d 4de4 c53d 252a 2f3e
00000170: aaa7 a43e 804a 393e 3346 22be 9ace 9f3d
00000180: c6b7 453b 65c0 c23e e309 df3d 5e31 753e
00000190: 70bf 47be cf41 1cbf ccbc 113e b5ef 343e
000001a0: f0b4 f33d 475e 4e3e 6529 103e c9cc f03d
000001b0: 8ffe 3b3f 03b6 dbbc 809f 463e beea de3e
000001c0: d885 3dbc fd8c 963e de06 5f3e 7b63 c23e
000001d0: 9c6a 1b3e 36da 86be 57ad c43d 62c3 a93c
000001e0: 3362 94bd 96e8 82bd 39b3 613d dfde 81be
000001f0: e2c6 94be 290b 353d 8966 2bbd 5722 d3bb
00000200: 9366 c2be 0b67 333e 9018 bd3e 9323 1c3e
00000210: 6736 2e3f e343 e53c f37d 9abc a1d7 363b
00000220: cf67 403e 666a 2e3e d598 3fbe ccb6 743e
00000230: a311 303e 665d a0be ff00 883c b214 073e
00000240: 8130 473e 57a4 323e cc11 b0be 027d be3e
00000250: c2eb 283e d273 943e 28fd 81be 3c4e 563e
00000260: bb75 373e 6273 4d3e e7d1 bdbe 70e3 c53e
00000270: 7a6b d63e d294 b83e 711a 63be 0c0e e4bc
00000280: fc18 13bd 0acb 1b3e a10c 2a3e b521 3e3e
00000290: ff0f 49be 34eb 08be 3d99 ab3d b184 02be
000002a0: 4bb8 423d 2d84 523e 2cf7 053e 9d92 ee3d
000002b0: c262 043f da19 b43d 37bc 1c3e b5fa bf3e
000002c0: 0b29 a93d 8fcc 22bd 1d88 123e 7077 703e
000002d0: 15af fcbe d84c 37be 7b88 523d f2fb 29bc
000002e0: 18d3 3abe f7a5 20be 9f5c 353c dd20 f3be
000002f0: a179 94be ece6 033e 4c48 1ebf c987 413c
00000300: 2df8 823e ce3b 8c3e 1c59 003f 501d 70bd
00000310: e3a7 acbd e5f9 5cbe 6b20 09bf 9274 f4bd
00000320: 074d 343e 0fc7 5d3e d983 b43c b91d d03d
00000330: 4f1a ab3e 6121 c5bc ccbe 723e f720 d6be
00000340: 8261 adbd a2cf 313e 41b3 44bc e7b7 bc3e
00000350: 4093 933d 62fa a13e 5fa8 bebe 3136 853e
00000360: 673b 95bd fe29 b4be 8bc6 203e ab5f 313e
00000370: 82b7 c63e af46 2e3e 0557 4ebe 1a65 cf3d
00000380: 80bb 43be 25bc a23e faff e93c 9765 49be
00000390: 8f77 8bbe c6fe 0e3e d5db 233e 15f1 a73e
000003a0: 4054 c9bd e954 703e 01dd 653e 832c 12bf
000003b0: f265 3f3f 4089 69be 2ffc 153e 21a0 4e3e
000003c0: 249c 233e d9c4 b63c f55e b63e 669a 6d3d
000003d0: 43af 0fbe 0af5 5fbe b23c 9c3e 8177 833d
000003e0: 37f6 3dbd ace4 b8bc a3d2 bbbe abd0 0ebf
000003f0: 76c0 d0be aca7 a33d 4c41 7ebe f1c4 bdbc

fc3.bias f4 [4]
0.3426497 0.33279917 0.28799504 0.23308356
00000000: c86f af3e a764 aa3e 1674 933e 75ad 6e3e
